…
debug:
  view_model: false
  lp_test: null
  rescale_vnnlib_ptb: null
  test_optimized_bounds: false
  test_optimized_bounds_after_n_iterations: 0
  print_verbose_decisions: false

Experiments at Sun Jun  2 23:04:47 2024 on peacock
Loading onnx /home/shauntan/benchmark_selection_experiment/models/resnet/resnet_3b2_bn_mixup_adv_4.0_bs128_lr-1.onnx wih quirks {'Reshape': {'fix_batch_size': True}}
Enabling quirks for Reshape operation: fix the first dimension shape to be -1 to support batchsize != 1.
input shape torch.Size([1, 128, 2, 2]), new shape is tensor([ -1, 512]).
ConvertModel(
  (Conv_104): Conv2d(3, 16, kernel_size=(3, 3), stride=(2, 2), padding=(1, 1))
  (Relu_67): ReLU(inplace=True)
  (Conv_107): Conv2d(16, 32, kernel_size=(1, 1), stride=(2, 2))
  (Conv_110): Conv2d(16, 32, kernel_size=(3, 3), stride=(2, 2), padding=(1, 1))
  (Relu_72): ReLU(inplace=True)
  (Conv_113): Conv2d(32, 32, kernel_size=(3, 3), stride=(1, 1), padding=(1, 1))
  (Add_75): Add()
  (Relu_76): ReLU(inplace=True)
  (Conv_116): Conv2d(32, 64, kernel_size=(1, 1), stride=(2, 2))
  (Conv_119): Conv2d(32, 64, kernel_size=(3, 3), stride=(2, 2), padding=(1, 1))
  (Relu_81): ReLU(inplace=True)
  (Conv_122): Conv2d(64, 64, kernel_size=(3, 3), stride=(1, 1), padding=(1, 1))
  (Add_84): Add()
  (Relu_85): ReLU(inplace=True)
  (Conv_125): Conv2d(64, 128, kernel_size=(1, 1), stride=(2, 2))
  (Conv_128): Conv2d(64, 128, kernel_size=(3, 3), stride=(2, 2), padding=(1, 1))
  (Relu_90): ReLU(inplace=True)
  (Conv_131): Conv2d(128, 128, kernel_size=(3, 3), stride=(1, 1), padding=(1, 1))
  (Add_93): Add()
  (Relu_94): ReLU(inplace=True)
  (Reshape_100): Reshape(shape=[ 1 -1])
  (Gemm_101): Linear(in_features=512, out_features=100, bias=True)
  (Relu_102): ReLU(inplace=True)
  (Gemm_output): Linear(in_features=100, out_features=10, bias=True)
)
Parameters:
  Conv_104.weight: shape torch.Size([16, 3, 3, 3])
  Conv_104.bias: shape torch.Size([16])
  Conv_107.weight: shape torch.Size([32, 16, 1, 1])
/home/shauntan/alpha-beta-CROWN/complete_verifier/data_utils.py:262: UserWarning: To copy construct from a tensor, it is recommended to use sourceTensor.clone().detach() or sourceTensor.clone().detach().requires_grad_(True), rather than torch.tensor(sourceTensor).
…
